树莓派部署/tfl.tflite (tflite, 358632 bytes, 16 tensors)

unknown_0 f4 [32]
000000 cd 73 15 bb 05 ac 4c 3c c4 27 b1 3a 1e 58 ce bb
       -0.0022804618 0.0124921845 0.0013515879 -0.0062971255
000010 e1 7c e7 3b f7 f9 5d 3b d4 55 a5 3b 19 e4 a3 3c
       0.0070644473 0.0033870914 0.005045632 0.020006226
000020 07 3f 8d bc 8d c2 2e 3c c8 38 42 3c 2f 76 04 3b
       -0.017241968 0.010666502 0.011854358 0.0020212044
000030 d5 87 f7 bb 1a bd 5c bb 4e 5a 14 bc bc 41 21 bc
       -0.0075540342 -0.003368205 -0.009054733 -0.009842332
000040 03 bb 81 3b 62 e0 c4 3b 3e 78 6e 3c 69 00 bf 3b
       0.003959061 0.006008194 0.014555035 0.0058289063
000050 f4 bb 19 ba b3 54 89 bc 1e c8 96 3c 5a 18 5a bc
       -0.0005864494 -0.01676402 0.01840597 -0.01331147
000060 e7 a8 b3 39 d5 c2 97 3b 45 06 13 bc a0 8d e8 bb
       0.00034267383 0.00463138 -0.008973663 -0.007096961
000070 26 3a 21 3c b2 34 76 bc 31 4a e9 3b 79 ed 09 3c
       0.009840524 -0.015027212 0.00711944 0.008418434

unknown_12 f4 [64]
000000 da ea 0a 3b c2 1e b8 ba 32 d5 9c 3b b1 4a bb bc
       0.0021197111 -0.0014047252 0.004786157 -0.022862764
000010 e2 3e c0 3c 99 94 8e 3a e9 c1 1e 3c 16 02 95 bc
       0.023467485 0.0010878026 0.0096897865 -0.018189471
000020 f9 18 57 3b 8d 08 34 3b 64 b8 03 3c 61 91 e6 3b
       0.0032821281 0.0027470917 0.008039568 0.0070363735
000030 19 80 88 bc 68 ea 30 bc 9a 1c 83 b9 22 f0 16 3b
       -0.016662644 -0.010798074 -0.00025007577 0.0023031314
000040 ce 81 68 3c 77 12 39 bc 99 d6 e8 bc 72 ee a9 3b
       0.014191104 -0.011295906 -0.02842264 0.0051858956
000050 a9 61 ac 3a 01 90 39 3c d5 94 7f 3b a3 bd 1e 3b
       0.0013151664 0.011325837 0.0038998623 0.002422192
000060 cb af 60 3c 94 c2 18 3c 07 11 a4 bc 91 aa 12 bc
       0.013713787 0.009323735 -0.02002765 -0.008951799
000070 ff 43 6c 3c 68 7b 9c 3a 15 f6 63 3b c8 e4 c9 3a
       0.014420508 0.0011938633 0.0034784127 0.0015403265
000080 54 94 1b 3c 46 c4 78 3c 5d a4 3d 3c 9c 99 58 3c
       0.009495813 0.015183514 0.011574832 0.013220217
000090 29 55 0b 3c 30 f9 b2 ba 77 a5 32 bc 37 ab 27 3b
       0.0085041905 -0.0013654586 -0.010903708 0.002558423
0000a0 00 c4 5b 3b 94 1e 73 3b 06 7f 80 3c 97 f9 ae 3b
       0.0033533573 0.0037097083 0.01568557 0.005339812
0000b0 28 15 26 3c 0e 2f e4 bb d2 ef 8a 3c d4 fa 0c bc
       0.01013688 -0.006963617 0.016960058 -0.008604724
0000c0 14 47 a7 bc 09 6f d6 bb 05 51 ba 3c fa 77 af 3a
       -0.020419635 -0.006543998 0.022743711 0.0013387196
0000d0 ab c3 aa 3c 34 16 fe 3b 13 e9 e0 3b c8 74 35 3b
       0.020845255 0.0077541117 0.006863722 0.0027688015
0000e0 fe 20 1c 3c 70 08 a9 3b 65 93 7b 3b 9c 80 04 3c
       0.00952935 0.0051584765 0.0038387415 0.0080873035
0000f0 bc b3 8a ba 55 fe 87 3c 82 81 8f 3b f8 85 41 3c
       -0.001058213 0.016600767 0.004379452 0.011811726

unknown_18 f4 [32]
000000 33 0e b7 3d 37 c2 ae 3d 78 5c 9f bd f9 9d 98 3d
       0.08938255 0.08533137 -0.07781309 0.07452006
000010 8b 0e b7 3d bb 30 b3 bd 0e 41 ae bd b2 7e cc 3d
       0.08938321 -0.08749529 -0.08508502 0.09985103
000020 ff a1 b7 bd 63 30 b2 3d 70 00 b6 3d 98 7e b3 bd
       -0.08966445 0.08700635 0.08886802 -0.0876438
000030 80 18 f8 3c 24 67 b2 bd 79 13 a8 3d 3f fb 8b 3d
       0.03028512 -0.08711079 0.08206839 0.06835031
000040 09 20 a5 bd 18 05 b6 bd 85 2a b7 bd e2 98 b4 3d
       -0.08062751 -0.0888769 -0.08943657 0.088182226
000050 b2 5c 4f bd f5 64 b3 bd f8 f2 e4 3c 2f f2 8c 3d
       -0.05062551 -0.087594904 0.027947888 0.0688213
000060 22 0f a5 bd 48 a7 9a 3d a2 14 b8 3d 3d 3c 43 bd
       -0.08059527 0.075514376 0.089883104 -0.04766487
000070 bf 60 b2 3d cc 10 a4 3d 8b cb a5 3d 06 de 90 3d
       0.08709859 0.08011016 0.08095463 0.070735976

unknown_20 f4 [3]
000000 1f 02 7f 3c d9 c0 a3 3d 37 b2 bc bd
       0.015564471 0.07995767 -0.09213679

unknown_6 f4 [32]
000000 f1 ce dc bb a9 60 a7 bb f9 c0 fb bb 81 d1 17 bc
       -0.0067385365 -0.0051079583 -0.0076829162 -0.009266258
000010 7c b3 04 bc cf 3a b0 3b 03 55 83 bb 8f 34 36 3c
       -0.008099433 0.0053781043 -0.004007937 0.011120929
000020 99 04 1d 3c 32 f1 c4 bc 8f f7 18 bc 76 bd c5 bb
       0.009583616 -0.024040792 -0.009336366 -0.0060345484
000030 75 e8 37 bc 56 41 da 3b 34 2f fb 39 e3 a6 1a bc
       -0.011224856 0.0066606207 0.0004790962 -0.009439203
000040 6e 04 15 3c 4f c9 57 3a 15 07 86 3c ca 4f d1 ba
       0.009095294 0.00082315964 0.016360799 -0.0015969214
000050 5c 03 62 3c 30 33 ad bc 2b a1 5d bb e5 3f 58 3b
       0.013794746 -0.021142572 -0.0033817987 0.0032997068
000060 8f 49 fd 3a 7d 36 32 3c 80 57 d1 3c c2 e0 14 3c
       0.001932429 0.010877249 0.025554419 0.00908679
000070 a1 77 19 bc 70 c3 6f 3c 32 93 ed 3a 51 8b 34 3b
       -0.009366901 0.014633998 0.0018125533 0.002754886

functional_1/batch_normalization/FusedBatchNormV3;StatefulPartitionedCall/functional_1/batch_normalization/FusedBatchNormV3 f4 [32]
000000 d0 63 ab 3f de 49 b8 3f 8d 14 ae 3f ad e3 f4 3f
       1.3389835 1.4397542 1.3600022 1.9131981
000010 f1 97 ac 3f 35 4f ba 3f 4b 14 b9 3f cc cb b7 3f
       1.3483869 1.4555422 1.4459318 1.4359069
000020 d5 ed d6 3f 41 51 ce 3f 4a e9 c6 3f a1 4f b1 3f
       1.679133 1.6118547 1.5539944 1.3852426
000030 e0 01 d8 3f 61 0e c5 3f cd fe b0 3f 14 d7 db 3f
       1.6875572 1.5395013 1.3827759 1.7175012
000040 3f f4 b3 3f c8 9b c3 3f 57 7f e3 3f 73 b5 ca 3f
       1.4058913 1.5281916 1.7773236 1.5836624
000050 23 36 d4 3f ba 3e a0 3f 97 fc b4 3f 72 95 cd 3f
       1.6579021 1.2519143 1.4139584 1.6061232
000060 68 70 c5 3f 8f 13 cf 3f e1 e7 c0 3f c7 01 df 3f
       1.5424929 1.6177844 1.5070764 1.7422417
000070 78 a0 f2 3f 94 b3 ec 3f a0 f8 c3 3f e6 7e ab 3f
       1.8955221 1.8492303 1.5310249 1.3398101

functional_1/batch_normalization/FusedBatchNormV3;StatefulPartitionedCall/functional_1/batch_normalization/FusedBatchNormV31 f4 [32]
000000 7a f0 ec be 4e 59 e4 be d6 0e f9 be 44 90 cd be
       -0.4627722 -0.44599384 -0.4864413 -0.40149128
000010 fe b7 f3 be 86 0d dc be 03 65 05 bf f4 a6 e8 be
       -0.47601312 -0.42979068 -0.52107257 -0.45439875
000020 e3 7b de be 3a 95 de be 28 15 e5 be fc 53 f5 be
       -0.43453893 -0.43473226 -0.44742703 -0.47915637
000030 50 92 e6 be 25 1c dc be 24 55 db be 6c 79 e6 be
       -0.45033503 -0.42990223 -0.42838395 -0.45014513
000040 75 02 ff be be 03 d0 be 45 ee e0 be 80 04 cf be
       -0.49806562 -0.40627855 -0.43931785 -0.4043312
000050 6c cd c9 be 1a c1 f2 be 67 5d f7 be 3e 6a d5 be
       -0.39414537 -0.4741295 -0.48313448 -0.4168262
000060 4d 7b 03 bf 90 ef e3 be 2b 7c cf be 63 e8 dd be
       -0.5136002 -0.4451871 -0.4052442 -0.4334136
000070 57 ca d9 be 1d 20 d7 be ea 1a e7 be 21 0c e2 be
       -0.42537186 -0.42016688 -0.4513772 -0.4414988

functional_1/batch_normalization_1/FusedBatchNormV3;StatefulPartitionedCall/functional_1/batch_normalization_1/FusedBatchNormV3 f4 [32]
000000 93 9b 4e 3f 9c 3d 64 3f 24 2c c0 3f 48 fb b9 3f
       0.8070614 0.8915651 1.5013471 1.452981
000010 7f 7d 85 3f f5 b3 97 3f 8d 5d c7 3f f3 b8 54 3f
       1.0428923 1.1851794 1.5575424 0.8309471
000020 09 2b 45 3f 85 ff ac 3f 48 76 90 3f 6a f5 86 3f
       0.7701879 1.3515478 1.1286097 1.0543644
000030 51 b8 2c 3f a5 08 55 3f 46 3a de 3f 71 73 3e 3f
       0.67468745 0.83216316 1.7361534 0.743949
000040 8b bf 6f 3f 11 ae 5c 3f 87 c1 6d 3f 16 86 4d 3f
       0.93651646 0.86203104 0.92873424 0.80282724
000050 ae 4f 60 3f f3 e5 69 3f fb d6 38 3f 70 e9 36 3f
       0.8762158 0.913665 0.72203034 0.7144995
000060 22 57 b6 3f 11 ab bc 3e 2e 31 29 3f 81 3e 84 3f
       1.4245341 0.36849263 0.6609067 1.0331575
000070 61 1f 97 3f 89 a3 50 3f 54 1d a0 3f 01 66 51 3f
       1.1806451 0.81499535 1.250895 0.8179627

functional_1/batch_normalization_1/FusedBatchNormV3;StatefulPartitionedCall/functional_1/batch_normalization_1/FusedBatchNormV31 f4 [32]
000000 6d 10 58 bf c8 ef 3a bf f8 64 d7 bf 60 93 8e bf
       -0.84400064 -0.7302213 -1.6827688 -1.1138725
000010 ec 44 8a bf ca 8d be bf 96 71 c8 bf b7 03 5d bf
       -1.0802283 -1.488702 -1.5659664 -0.86333793
000020 4b ba 6c bf 17 8f b0 bf 19 3f bb bf ce f2 63 bf
       -0.9247176 -1.3793668 -1.4628631 -0.89042366
000030 34 43 24 bf 30 10 5d bf 61 22 92 bf 0f 3d 34 bf
       -0.64165044 -0.86352825 -1.1416742 -0.7040567
000040 80 1d 43 bf 36 26 40 bf 8d ea 60 bf fd 34 10 bf
       -0.7621689 -0.75058305 -0.87857896 -0.56330854
000050 ac 57 55 bf 97 64 3d bf 37 40 24 bf 74 29 4f bf
       -0.833369 -0.7398161 -0.64160484 -0.8092263
000060 2d dd a2 bf 77 4d 54 bf be c6 48 bf a4 b3 46 bf
       -1.2723747 -0.829307 -0.78428257 -0.7761786
000070 ed 17 b3 bf 95 d8 42 bf 04 bb bb bf 6f aa 36 bf
       -1.3991677 -0.7611173 -1.4666448 -0.7135381

functional_1/batch_normalization_2/FusedBatchNormV3;StatefulPartitionedCall/functional_1/batch_normalization_2/FusedBatchNormV3 f4 [64]
000000 30 04 e8 3f 42 5c b0 3f 00 53 e8 3f a6 06 20 40
       1.8126278 1.3778155 1.815033 2.5004058
000010 d7 1f ce 3f 62 fe f3 3f 6a d8 cf 3f 4f 0c 1d 40
       1.6103467 1.9062006 1.6237919 2.4538763
000020 37 06 de 3f 34 fc f7 3f 18 9c b9 3f 63 42 05 40
       1.7345647 1.9373841 1.4500761 2.082177
000030 bb 5a 1d 40 0a a3 21 40 96 c6 ba 3f bd f5 c2 3f
       2.4586627 2.525576 1.4591854 1.5231243
000040 5d a4 c9 3f 65 0a 20 40 04 1d 1b 40 96 d0 00 40
       1.5753285 2.5006344 2.423646 2.012731
000050 a9 71 a9 3f c7 e2 fd 3f 83 7d e6 3f 44 73 bb 3f
       1.3237811 1.9834832 1.8007053 1.4644551
000060 17 f5 00 40 df 94 e2 3f 8c 7e 1e 40 66 d7 ce 3f
       2.014959 1.7701682 2.4764738 1.6159484
000070 63 01 f0 3f d3 51 d3 3f 0c d6 03 40 fa fa d5 3f
       1.8750423 1.6509346 2.0599394 1.6717217
000080 fd 9f b7 3f 23 40 d8 3f 0d cf fe 3f 33 55 04 40
       1.43457 1.6894573 1.9906937 2.0677001
000090 12 3d dc 3f e6 01 d7 3f 28 ef e6 3f ba 15 e6 3f
       1.7206137 1.6797454 1.8041735 1.797538
0000a0 d5 9c ea 3f c2 ec c6 3f a5 9a 06 40 30 b5 be 3f
       1.8329111 1.5541003 2.1031888 1.4899044
0000b0 15 98 a8 3f 18 89 1e 40 f9 f5 cc 3f 15 9e cf 3f
       1.3171412 2.4771175 1.6012565 1.6220118
0000c0 a4 71 cd 3f 3d f7 df 3f 17 b0 ce 3f 88 05 e4 3f
       1.6050305 1.7497326 1.6147488 1.7814188
0000d0 b2 92 a4 3f e4 2d ad 3f 93 20 cb 3f 84 d0 eb 3f
       1.2857268 1.352963 1.5869316 1.8423009
0000e0 2f b3 be 3f 18 79 f3 3f e9 3e cf 3f 12 81 e8 3f
       1.4898432 1.902133 1.6191074 1.8164389
0000f0 63 8f e2 3f e8 f6 fc 3f d6 0c fb 3f db 04 e7 3f
       1.7700008 1.976285 1.9613292 1.8048357

functional_1/batch_normalization_2/FusedBatchNormV3;StatefulPartitionedCall/functional_1/batch_normalization_2/FusedBatchNormV31 f4 [64]
000000 9c 36 cc bf f4 01 d6 bf c5 c8 f6 bf fa 21 09 be
       -1.5954165 -1.6719346 -1.928002 -0.13391867
000010 1c ce c4 bf 5d 33 03 c0 ec 3f 02 c0 88 14 36 be
       -1.53754 -2.05001 -2.0351515 -0.1778127
000020 3e 01 03 c0 f1 92 47 be dd 3b ee bf 20 47 2d c0
       -2.0469508 -0.19489647 -1.8612019 -2.7074661
000030 eb 3f 12 be 7a aa f8 bd f8 21 b3 bf 5a 0a 0b c0
       -0.14282195 -0.12141891 -1.3994741 -2.1725068
000040 7f 08 ec bf 4d 18 8c 3d 70 c5 20 bb 31 2c 22 c0
       -1.8440093 0.068405725 -0.0024531744 -2.5339472
000050 0d 61 a0 bf 49 96 f9 bf 39 2e 96 bf d6 d0 43 c0
       -1.2529618 -1.9498988 -1.1732856 -3.0596213
000060 a4 ee fe bf 49 e3 a3 bf be 1c 49 be aa ea 91 bf
       -1.9916577 -1.2803737 -0.1963987 -1.1399739
000070 8c c0 f1 bf 1f a4 df bf bd af 0b c0 7a f4 a0 bf
       -1.8886886 -1.7471961 -2.1826012 -1.2574608
000080 3c e6 0e c0 39 57 f7 bf f7 4b 88 bf 87 ed a7 bf
       -2.2328024 -1.9323493 -1.0648183 -1.3119363
000090 7b 3a af bf e7 15 90 bf 4c 31 fb be 49 f5 a8 bf
       -1.3689722 -1.1256684 -0.49061048 -1.3199855
0000a0 9f ea ca bf 9c 2c af bf 19 10 b8 bf f5 f4 6c bf
       -1.5852851 -1.3685489 -1.4379913 -0.92561275
0000b0 ff 5a 06 c0 ea 3c 0d be f9 db 0d c0 80 25 c2 bf
       -2.099304 -0.13792768 -2.216551 -1.5167694
0000c0 38 fa b8 bf b6 b1 02 bf 07 e2 f4 bf 24 a6 1c bf
       -1.4451361 -0.51052415 -1.9131478 -0.6119101
0000d0 1d 52 e1 bf f7 32 c1 bf 64 65 ef bf a8 90 b6 bf
       -1.7603184 -1.5093678 -1.8702817 -1.4262896
0000e0 b2 e5 12 c0 49 d8 d9 bf 9d 8b b8 bf aa 94 2e c0
       -2.2952695 -1.701913 -1.4417607 -2.7278237
0000f0 4a 0b b0 bf f4 ba ac bf 2e 43 b5 be 2f 08 a7 bf
       -1.3753445 -1.3494554 -0.35402817 -1.3049372

functional_1/dense/MatMul;StatefulPartitionedCall/functional_1/dense/MatMul f4 [32, 1856]
000000 03 0d 08 3d 7c 96 b5 3c bd 4f 2f 3d 17 f0 09 3d
       0.033215534 0.022166483 0.042800654 0.033676233
000010 ec 38 a2 3c 94 66 14 bb e6 b4 4f bd 5c f4 f3 bc
       0.019802533 -0.002264415 -0.050709628 -0.029779606
000020 ff f7 73 3d 1a f9 15 3d 1f 0b c3 3c 82 1e 47 3d
       0.05956268 0.036614515 0.023809014 0.04861308
000030 8c 85 74 bd bf 21 70 bd 2f cc 0b bc 81 5d 63 bd
       -0.059697673 -0.058625933 -0.008532568 -0.055509094
000040 7f f3 1e bd 8c 4a 44 bd 07 17 02 3c 8b 04 00 bc
       -0.038806435 -0.047922656 0.00794006 -0.007813583
000050 95 0c 18 bd b7 7d 1b bd b3 f7 88 3b 2b 5e cf 3c
       -0.037121374 -0.037961688 0.0041799187 0.025313457
000060 40 91 47 bd c7 eb e6 3c 8f 17 be 3c 42 46 4e ba
       -0.048722506 0.0281886 0.023204593 -0.00078687456
000070 0b 97 2e bd ab d4 26 3d 24 19 8a 3c 5f d2 ee 3c
       -0.042624515 0.04073016 0.016857691 0.029153047
000080 4b e6 3c 3d e9 42 a9 bb 74 08 10 3d a9 e8 7c 3c
       0.046118062 -0.005165447 0.03516431 0.01543633
000090 b5 d9 e1 bb d2 85 dd 3c 4b a3 46 bd e3 39 49 bd
       -0.006892408 0.02704135 -0.048495572 -0.04912747
0000a0 ca f5 d3 bc 43 bc 66 3d 06 30 b6 3c 95 2f c9 ba
       -0.025874037 0.056331884 0.022239696 -0.0015349264
0000b0 39 ee 26 bd 37 56 f5 bc 6d a4 18 3d 61 ed 14 3b
       -0.04075453 -0.029948337 0.037266184 0.0022724497
0000c0 cf 51 94 3d b1 c7 e5 bc 67 7e d4 3c ca 2a 3b bd
       0.07242166 -0.028049322 0.02593918 -0.045695104
0000d0 84 9e cb bc a0 87 3f 3d 1f b9 25 3d 70 c6 25 3d
       -0.02485586 0.0467602 0.04045975 0.040472448
0000e0 14 4d f9 ba b9 af 85 ba f5 62 88 bc dd 7f 28 3b
       -0.0019020163 -0.0010199464 -0.016648749 0.0025710978
0000f0 0c fe a4 bb 47 34 fe bc f5 07 26 3d de 3b 01 bd
       -0.0050351676 -0.031030787 0.040534932 -0.031551234
000100 39 27 24 3d 0f 0c 83 bd 67 ca 09 3d be dc ed bb
       0.04007647 -0.06398784 0.03364029 -0.0072589805
000110 ee 01 87 bc f8 f4 8d 3c a9 6d 6d 3c 0b 92 7f bc
       -0.016480412 0.017328724 0.014491477 -0.015598784
000120 6a 6d 51 bd 36 b7 14 3d 48 27 91 3d 6b 1e 89 3d
       -0.051129736 0.036307536 0.070875704 0.06695255
000130 55 d7 7d bd 58 b2 22 bd a1 11 f8 ba fc 0d d2 3c
       -0.061972935 -0.039720863 -0.0018926152 0.025641434
000140 d4 55 bd ba d1 76 47 3d 6d 59 40 bd 87 a3 ef 3c
       -0.0014445134 0.048697297 -0.046960283 0.02925278
000150 fe 1d 61 bd 06 0a e9 ba 3e 5b 0e bc 82 1d f5 3b
       -0.054960243 -0.0017779476 -0.008688746 0.0074803242
000160 43 50 5f bd c5 1f 88 3c 50 42 06 bd 73 52 56 bd
       -0.054519903 0.016616711 -0.032778084 -0.052324723
000170 98 85 71 bc 1a 1d 29 bd 1a 74 b6 bc 12 93 14 3d
       -0.014741324 -0.04128752 -0.022272158 0.03627307
000180 e9 52 c0 bc 1b fc 71 3b d5 ff 10 3d ea aa 0d 3c
       -0.023477035 0.0036923948 0.03540023 0.008646706
000190 75 35 28 3d f4 fc 9e 3c 85 ed 1d bd 74 d8 72 3c
       0.041066606 0.019407727 -0.038556594 0.014822114
0001a0 6a 44 37 bb 3a a9 de bc 48 14 2a 3d d7 87 fb 3b
       -0.0027964362 -0.027180303 0.041523248 0.0076761055
0001b0 13 20 3e bd 99 74 05 3c b4 97 57 39 aa 67 98 3c
       -0.046417307 0.008145475 0.00020560512 0.018604118
0001c0 ae bb d4 3c 53 5b f2 3c b8 36 31 3d 67 02 d9 3c
       0.025968399 0.029584562 0.043265074 0.026490403
0001d0 f9 3e 27 bd bf 8b ec 3b fc aa ad bc a6 43 a4 3c
       -0.04083154 0.0072188075 -0.021199696 0.020051789
0001e0 5f b0 0d 3d 76 1c 16 3d 46 65 66 bd 06 30 c2 bc
       0.03459203 0.036648236 -0.056248926 -0.02370454
0001f0 df d3 98 3b 0b f2 ff 3b be 57 cb bb b0 04 2a 3d
       0.004663929 0.007810836 -0.006205528 0.041508377
000200 a2 90 3e bb c1 f2 eb bc ef 47 21 bd 90 36 55 bd
       -0.0029077907 -0.028802278 -0.03937524 -0.052053988
000210 1f 57 b8 3c cd bb 8b 3c 54 ee 2b bd e2 86 3e bd
       0.02250248 0.017057324 -0.041975334 -0.046515353
000220 6f fc dc 3c 3b cc 4a 3d 7e ca 57 3c 81 c2 ab bb
       0.026975838 0.049511176 0.0131708365 -0.0052416925
000230 6a 2b 0b bd 5a ba 43 bd e5 9d 0e bc 23 6b 01 bd
       -0.03397695 -0.04778514 -0.008704637 -0.031596314
000240 09 62 11 bd b1 d1 8f bc f0 e4 2e 3d 3b 3b 15 bd
       -0.035493884 -0.017556043 0.0426988 -0.03643344
000250 97 36 78 bc eb 74 d2 3c 98 ee 61 3d 8f 26 42 bb
       -0.015149734 0.025690516 0.05515918 -0.0029625033
000260 80 9d e2 3c 10 9f 8c bb 5d 79 dc bc 5f c5 a6 3c
       0.027662992 -0.0042914227 -0.02691334 0.020357786
000270 69 31 50 3d e3 c0 ed bc 2d bb 93 3b 5e 29 69 bb
       0.05082837 -0.02902264 0.004508397 -0.0035577635
000280 7d f3 00 bd 88 a5 57 3c 4a 7a 85 3d b3 77 37 3d
       -0.03148221 0.013162024 0.065174654 0.04479189
000290 c0 7d 03 bc 0e 1b 3d bb 13 27 11 3d 60 ce bc 3c
       -0.008025587 -0.0028855237 0.035437655 0.023047626
0002a0 f4 58 c7 3b c4 30 53 3c 51 e8 e7 bb dc 90 36 bc
       0.006083602 0.012890045 -0.007077255 -0.011142936
0002b0 42 f6 7d bc 9a 31 44 3d 6c 8d 7a 3d 28 65 b9 3c
       -0.015500607 0.047898866 0.061170027 0.022631243
0002c0 cb 5d b2 bb 30 b8 9f bc b1 70 bf 3c 22 cb 06 3c
       -0.00544331 -0.019497007 0.023369165 0.008227142
0002d0 4a 65 fd bc 85 fb 00 bd dc c2 66 3b dd c1 f2 bc
       -0.030932087 -0.031489868 0.003521136 -0.029633457
0002e0 04 db 95 bc 1c ff 32 bd 4d 7a d0 bc 9f 90 f2 3b
       -0.018292911 -0.043700323 -0.025448943 0.007402494
0002f0 86 b2 4f 3c f5 37 82 bc d3 9e 22 bb 6d 12 3e bd
       0.012676841 -0.015895823 -0.0024813905 -0.04640429
000300 57 80 d4 3c 5b 7f a5 3b 64 05 f0 bc 51 c4 08 bd
       0.025940103 0.0050505823 -0.029299445 -0.033390347
000310 4e 9b 08 bc 1c 5d 8f 3c dd 8e 41 bd 00 bd 22 bc
       -0.008337809 0.017500453 -0.047255386 -0.009932756
000320 48 b8 da bb 4f 23 21 3d d7 e6 19 bd 91 38 67 3c
       -0.0066748 0.039340314 -0.03757366 0.014112608
000330 cd 08 2b bc 39 e0 ad 3c 3e e8 28 3d 09 b7 38 bd
       -0.01043911 0.021225082 0.04123711 -0.04509643
000340 c3 9d 27 3d 5a d7 0a 3d 8c bd 50 3c 95 30 5f bd
       0.040921938 0.03389678 0.012740504 -0.05448969
000350 1f 8e 4f 3c 8c 22 eb 3b 34 a6 46 3d 34 04 77 ba
       0.012668162 0.007175749 0.048498347 -0.00094229286
000360 3d 15 98 3c 72 82 4e bd 51 0c 25 3d 4d 75 94 bb
       0.018564815 -0.05041737 0.04029495 -0.004530585
000370 bd 6b 45 bc 45 ba 1a bd 9c 27 3b 3d fb a2 41 3d
       -0.012049613 -0.037775297 0.04569207 0.04727457
000380 d2 db 26 bd 23 43 d4 bb 8d b3 84 bc 84 95 23 3c
       -0.04073698 -0.00647773 -0.016198898 0.009984378
000390 9a c4 76 3d eb fd 8c bd c6 e9 1a 3c 2e 50 c1 3c
       0.060246088 -0.068843685 0.00945515 0.023597803
0003a0 93 45 0a bd 2e 47 d0 bc ea 7f 2f 3c f3 aa 64 3d
       -0.033757757 -0.025424566 0.010711649 0.055827092
0003b0 0b 02 70 bd 8d d2 fd bc d7 86 e6 bc 17 da 2c bd
       -0.0585957 -0.030984187 -0.028140469 -0.042200174
0003c0 67 d8 f0 3c 60 dd dd 3c 4f f5 27 3d 33 ad 94 3c
       0.029400064 0.027083099 0.04100543 0.018148994
0003d0 42 21 4f bd 44 1f 81 bc d0 52 81 bd e7 83 6b bc
       -0.050568826 -0.015761979 -0.06314623 -0.01437471
0003e0 9e b8 89 bc f4 7d f6 3c f6 07 5a bc ae 13 dd bb
       -0.016811665 0.030089356 -0.013307562 -0.006746731
0003f0 b2 9b 14 bd f0 93 18 bd ff 8f bc bc 6d 8a c9 bc
       -0.036281295 -0.03725046 -0.023017881 -0.02460214

functional_1/dense_1/MatMul;StatefulPartitionedCall/functional_1/dense_1/MatMul f4 [3, 32]
000000 ed b2 88 3e 78 55 28 be 32 4e 8c 3e c8 f7 8f 3e
       0.2669901 -0.16438854 0.27403408 0.2811873
000010 34 3c 94 3e 24 8f 7f be dc 68 ce bd ed 50 86 be
       0.2895218 -0.24956948 -0.10078594 -0.26233616
000020 01 ac 9b be e7 6a 91 3d d9 5f 3d 3e aa 3e 28 3e
       -0.30404666 0.07100468 0.18493594 0.16430154
000030 3d 74 86 bd 69 a0 c1 3c b7 cf 2d 3e d0 2b 8f be
       -0.065651394 0.02363606 0.16973768 -0.27963114
000040 ae 4b 34 3e 52 9d aa bd 54 fa 8e be 4d c4 2c 3e
       0.17606995 -0.08330788 -0.2792536 0.16871758
000050 11 9e 92 3d 98 a4 59 3d 46 38 5a 3e 76 e5 4b 3e
       0.07159055 0.053135484 0.21310529 0.19911751
000060 2a 27 31 bd f4 43 bc bc 1a 05 b2 3e b4 48 0a 3d
       -0.04325024 -0.022981621 0.34769517 0.03376074
000070 4f 5a 3d 3e 6b bb 87 3e 93 be 43 be 47 9e 98 be
       0.18491481 0.26510176 -0.19115667 -0.29808256
000080 38 c4 6a 3e e6 3c 67 be 1c fd 21 3e eb d8 a3 3e
       0.22926414 -0.22581825 0.1581921 0.32001433
000090 0d ee 84 3e a2 8f 89 be 24 27 5f be d5 c1 8a be
       0.25962868 -0.26867396 -0.21792275 -0.27101007
0000a0 1b dd 89 be cf 3c f9 3d 7f b2 36 3e dd 32 83 3e
       -0.26926503 0.121698014 0.17841528 0.25624743
0000b0 cd 95 10 3e 6c 0e 27 3d cd ab 0f 3e 6e 57 06 be
       0.14119644 0.04078524 0.1403038 -0.1311929
0000c0 f6 79 48 3e 3c 92 7b bd a9 33 07 be ec cc 16 3e
       0.19577774 -0.061418757 -0.132033 0.14726609
0000d0 4f 71 76 be 3c 1b ac 3d 52 78 60 be da 2d c2 3e
       -0.24066661 0.08403632 -0.21920899 0.37925607
0000e0 15 fa 8c 3d 50 35 99 3e b6 a4 b8 3e 14 cd 92 be
       0.06883637 0.29923487 0.36063164 -0.28672087
0000f0 4e b3 97 3e ae bc 92 3e 93 59 2e 3e 68 25 66 be
       0.29628986 0.28659576 0.17026357 -0.22475207
000100 c1 e0 86 be f9 90 a4 be 37 58 9c 3e c2 16 89 3e
       -0.2634335 -0.32141855 0.30536053 0.26775175
000110 d2 62 48 be 82 bf 93 3d 4b 37 d0 3d 3e 47 9a be
       -0.19568947 0.072142616 0.10166796 -0.30132478
000120 51 23 1a 3e fd 10 2d be 7d 2c 98 be af 47 c3 3e
       0.15052535 -0.16901012 -0.29721442 0.38140628
000130 d5 8e da 3d 77 e4 0c 3e 30 04 8c 3d 21 97 78 be
       0.10671774 0.13759027 0.06836736 -0.24276401
000140 49 f9 48 3e 70 70 83 3e 8f 0f 8a 3e da e6 55 be
       0.19626345 0.2567172 0.26964995 -0.20888844
000150 9a 49 f6 bd d4 9f 59 3e 37 71 90 be 59 e1 79 3e
       -0.12025757 0.21252376 -0.28211376 0.2440237
000160 af f9 39 3e 54 14 c9 3b a0 a6 46 be 52 8c 38 be
       0.18161653 0.0061364565 -0.193995 -0.18022278
000170 87 6a db bd 73 84 62 3e a9 dd a7 be 16 da 8f be
       -0.10713678 0.22120838 -0.327863 -0.28096074

functional_1/conv2d/Conv2D;StatefulPartitionedCall/functional_1/conv2d/Conv2D f4 [32, 3, 3, 1]
000000 49 85 fb bc 08 19 6b bd f2 c5 39 3d 22 38 1c 3c
       -0.030703204 -0.05739692 0.04535479 0.0095348675
000010 58 d0 57 bd c7 ce f2 3c 0d b8 21 3c 49 b6 34 bc
       -0.052688926 0.029639615 0.009870541 -0.011029788
000020 f6 e4 42 bd 27 d2 d3 bc 97 58 c9 bc 17 a3 b5 3c
       -0.047581635 -0.025857044 -0.024578376 0.022172494
000030 0d 2d af 3b f3 9d 44 3d a7 85 36 3c 70 7a cb bc
       0.0053459466 0.048002195 0.011140264 -0.024838656
000040 38 d8 f2 3c 5c b0 70 3d 5e 00 06 3d 58 96 4b 3c
       0.029644117 0.05876194 0.032715194 0.012425981
000050 1b 71 80 bd c3 ed 45 bd 22 0c 3c bb ae 9b 29 bd
       -0.06271573 -0.04832245 -0.0028693755 -0.041408233
000060 bd a3 0b 3c 1c a5 ab bc d9 21 8b bc 13 00 18 3d
       0.008522925 -0.020952754 -0.016983913 0.037109446
000070 43 f8 18 bd 5b c8 8a bc a0 a1 43 bd 6a d6 20 3d
       -0.037346136 -0.01694124 -0.04776156 0.03926698
000080 67 14 6a 3c d1 fe 2b 3d 4d 58 f9 bc 67 c2 9d bc
       0.014287091 0.04199106 -0.030437613 -0.019257737
000090 8c 24 09 bd 81 61 09 bc af 61 fe 3c 08 ea 19 bd
       -0.03348212 -0.008385063 0.031052439 -0.037576705
0000a0 5d cf b8 bc 11 f8 c1 bc 4c e2 44 bc c0 5f 02 bd
       -0.022559816 -0.023677858 -0.012016844 -0.031829596
0000b0 c6 7a 06 bd 13 75 1e 3d e3 08 ab b9 ed 0d 4c bd
       -0.03283193 0.03868587 -0.00032622283 -0.04981797
0000c0 86 14 20 3d b8 e5 98 3c 4b 1d 04 3d 7c 7f e0 3a
       0.039082073 0.018664226 0.0322545 0.0017127837
0000d0 bc 21 0e 3d 36 c2 8f 3c c8 df a6 bb 32 20 c8 3c
       0.03470014 0.017548662 -0.005092595 0.024429414
0000e0 f5 64 98 3c cf 61 0f bd 51 8e ed 3c 50 e7 b9 3c
       0.018602828 -0.035005387 0.028998526 0.022693306
0000f0 f1 9c 45 bd 25 e2 fc bc a2 7e 35 bd 2b 5e 9d 3c
       -0.048245374 -0.030869553 -0.04431022 0.019209942
000100 87 88 c3 bc 4b 87 c2 bc c7 bb 18 3d 07 c7 1b 3c
       -0.023868812 -0.023746153 0.037288453 0.009507901
000110 50 82 d9 3b 72 2d 4b 3d c2 98 2c 3d 16 16 95 39
       0.006637849 0.049603887 0.04213787 0.0002843595
000120 8a a3 5c 3d 12 84 00 3d 1a 54 01 bd ba 67 db ba
       0.0538669 0.031375952 -0.031574346 -0.0016739287
000130 b4 50 38 bd 0a 00 b3 3c b1 75 37 bc 86 f4 dd 3c
       -0.04499884 0.021850605 -0.011197493 0.027094137
000140 f1 e4 51 3d 0a c7 1a bd 37 73 ed bc 83 0d da bc
       0.051243726 -0.037787475 -0.028985603 -0.026617771
000150 78 a2 8b 3c b2 ca 13 bc 21 49 9a bb 45 65 1a bd
       0.017045245 -0.009020494 -0.0047084247 -0.037694234
000160 2e aa a4 bc a6 42 e4 3b 2d fa a1 3c e7 02 c9 3a
       -0.02010068 0.006965953 0.019772613 0.0015335948
000170 da 29 f5 bc 04 e3 d1 bb e2 4b c2 3c 3f 6e 3b 3d
       -0.029927183 -0.006405236 0.023717824 0.045759436
000180 18 17 09 3d 5f 9d 53 3d a0 f1 2d bd 14 e0 32 bd
       0.03346929 0.051663753 -0.04246676 -0.04367073
000190 13 41 fd bc 4c 92 35 bc 55 d4 14 bd ca 0d 3a 3d
       -0.030914819 -0.011082243 -0.036335308 0.045423307
0001a0 24 07 6e 3d 71 00 0e 3c e8 21 5d bc 51 ad 2b 3d
       0.05811228 0.008667097 -0.013496853 0.041913334
0001b0 2a 60 5b bb a8 69 c7 bc a3 85 15 bd 85 e8 f8 bc
       -0.0033474066 -0.024342373 -0.0365044 -0.030384311
0001c0 37 ff 1b 3c e3 be f8 3c 42 0e 70 bc 0c ba 5c 3d
       0.009521297 0.03036446 -0.014651837 0.053888366
0001d0 4f 2c ee bc ed e3 05 3d a4 ea 28 3d 38 6f 07 bd
       -0.029073862 0.03268807 0.041239396 -0.03306505
0001e0 b3 4e fa 3c 79 4b 9d bc 5c b4 16 bd 5d e5 94 3c
       0.030555105 -0.019201027 -0.036793098 0.018175775
0001f0 38 a3 cb bc ca a3 cc bb a6 6d d8 3c 94 17 a6 3c
       -0.024858102 -0.006245111 0.026419472 0.020274915
000200 12 d2 8e bb a0 e0 76 ba 9d 15 4b 3d a4 16 04 3d
       -0.0043585384 -0.0009417627 0.04958116 0.032248154
000210 e6 0d 07 3d 72 44 e8 3c 94 9a 2d bd 5e d2 ff bc
       0.03297224 0.02835295 -0.042383745 -0.03122824
000220 73 78 6d bc 10 73 95 3c 16 42 3d 3d a1 c8 22 3d
       -0.014494049 0.018243343 0.046205603 0.039742116
000230 30 05 63 bc 3d ad ee bc 80 ac 6f bd 7c 6d 0e bd
       -0.013856217 -0.02913534 -0.05851412 -0.03477238
000240 40 64 40 bd 0d 1f 33 bd 71 15 4f bd 06 c1 e4 3c
       -0.046970606 -0.043730784 -0.050557557 0.027924072
000250 72 c2 3b bd 93 f8 ca bc 39 40 6d 3c aa 02 05 3d
       -0.045839734 -0.024776733 0.014480644 0.032473244
000260 f2 9b 80 3c 62 26 8e 3c 7e 35 b2 3b 34 79 0b bc
       0.01569936 0.017352287 0.0054385057 -0.008512784
000270 b1 3b 10 3d a7 d7 bd ba d1 65 db 3c e9 d5 dc 3b
       0.035213176 -0.0014483825 0.026781948 0.0067393673
000280 1f 1b 57 3d 3e b8 14 3d 2b 29 29 bd 98 14 a2 bc
       0.0525161 0.03630852 -0.041299026 -0.01978521
000290 5a e3 06 3d b5 46 a3 3c d2 03 26 bd 99 b9 fb bc
       0.032931663 0.019931177 -0.040530987 -0.030728148
0002a0 51 f6 aa bc 93 30 29 3d 88 6b e1 bb 38 a3 81 bb
       -0.020869406 0.04130609 -0.006879274 -0.003956225
0002b0 4e 83 ff 3b 87 c5 9d 3c 31 8c 22 bd b7 21 1c 3d
       0.007797635 0.019259227 -0.03968448 0.03811809
0002c0 e3 7e 4c 3c 2b 6b 6b bb a5 c4 12 3d 6d da 83 3c
       0.012481424 -0.0035922031 0.035832066 0.016095364
0002d0 38 d1 46 bc 20 cb e0 bc 90 db 4d 3c 7e e5 15 bb
       -0.012134843 -0.027440608 0.012564555 -0.0022872384
0002e0 56 2d 0f bd e2 49 63 3b a2 2a f2 3c 5c 29 90 bc
       -0.034955345 0.0034681489 0.029561345 -0.017597847
0002f0 e3 70 5c 3d 2b dc 84 3c 5e 84 eb bc 6c 21 93 bc
       0.053818595 0.016218266 -0.028749641 -0.017960273
000300 e3 fc 4c 3c 4f 66 bb bc 3d 59 1c bd cc 64 31 bb
       0.012511465 -0.022875933 -0.03817104 -0.0027068136
000310 3c 24 3e bd 13 d5 3c bd 63 5a fc bc b7 6e 60 bd
       -0.046421275 -0.04610164 -0.030804818 -0.054793086
000320 f5 08 38 bd 73 39 c3 bc 93 37 04 bc d8 b2 05 3d
       -0.044930417 -0.023831105 -0.008069891 0.03264126
000330 2d c0 78 bc c0 13 01 3d 21 35 a5 bc dd e4 fe 3c
       -0.015182537 0.031512976 -0.020166935 0.03111499
000340 b4 99 02 bd 38 e0 07 3c e7 e5 1a 3c 50 7d 36 bd
       -0.031884864 0.008293204 0.009454227 -0.0445531
000350 62 95 ab bc d0 14 33 3d f4 4b 02 3c 55 ee 8d bb
       -0.020945255 0.04372102 0.007952679 -0.00433139
000360 53 31 dc bc 68 06 eb 3c 67 d6 c7 bc 24 9a 78 bd
       -0.026878988 0.028689578 -0.024394227 -0.060693875
000370 7e 3c 58 bd a0 63 12 bc 3a f2 00 3d ae 70 4c 3d
       -0.052792065 -0.008934885 0.031481005 0.049912147
000380 44 5d ff ba 6a 59 56 3c 16 f6 aa 3c 32 0f 3c 3d
       -0.0019482751 0.013082841 0.020869296 0.04591293
000390 a3 83 56 bd 7c c3 96 3a a9 a6 13 3d 70 a0 d4 3c
       -0.052371632 0.0011502351 0.03604761 0.025955409
0003a0 33 53 08 3d cb dd a1 bc 56 3e 01 3d 9b cd 0a 3c
       0.03328247 -0.01975908 0.03155359 0.008471872
0003b0 b1 3d 53 bb 48 41 8f 3c 77 f9 f7 ba bc cc 45 bd
       -0.0032232816 0.017487183 -0.0018918951 -0.048290953
0003c0 00 0b 64 3d a6 45 45 bb 80 59 8e ba bd d1 8c bc
       0.055674553 -0.0030101328 -0.0010860413 -0.017189855
0003d0 21 b7 c0 bc fd 00 68 3d 5a f8 65 bc ed 1c 27 3c
       -0.023524823 0.056641567 -0.014036262 0.010199768
0003e0 d4 1b e7 bc f0 ba 93 bc 11 93 80 3c 1a 7a 8b bc
       -0.028211512 -0.018033475 0.015695127 -0.017025996
0003f0 a1 1b da bc 33 e1 24 3d a3 d6 87 3c 4d a9 65 3d
       -0.026624503 0.04025383 0.016581839 0.05606966

functional_1/conv2d_1/Conv2D;StatefulPartitionedCall/functional_1/conv2d_1/Conv2D f4 [32, 3, 3, 32]
000000 af 03 3c 3c c7 69 1d 3c e1 70 71 bd 72 40 2e bb
       0.011475488 0.009607739 -0.05894554 -0.0026588705
000010 a3 72 d7 bc 86 8e b7 3d ce a3 b6 3c f4 8b a7 bd
       -0.02629978 0.08962731 0.022294905 -0.08180991
000020 31 73 99 bd b2 cd f8 3c ed 9e 12 3d 8a d1 01 bd
       -0.07492674 0.03037152 0.035796095 -0.031693973
000030 ae f4 83 bd 5c bb 8e bd b1 77 9a bd 35 39 29 bd
       -0.06443153 -0.0696933 -0.075423606 -0.041314323
000040 72 da cc 3d 88 a8 2f bc 68 6a 56 3d 73 dd 76 3c
       0.10002603 -0.010721333 0.05234757 0.015067446
000050 36 c7 94 bd ee 3b ba 3c e0 a0 92 bc 29 e0 24 3d
       -0.07264559 0.022733655 -0.017898977 0.04025284
000060 3e 58 5e 3d f6 b2 13 3d bc 0e 81 bd 48 67 d3 3d
       0.054283373 0.036059342 -0.063016385 0.10322434
000070 54 00 81 bd fa 85 04 3d d8 d9 94 bd a4 66 be bd
       -0.06298891 0.032354333 -0.07268113 -0.09296921
000080 fa ab 86 3d 57 f8 08 3d a9 d0 7b 3c 0a e6 54 3d
       0.06575771 0.03343996 0.015369573 0.051977195
000090 db c8 9d bd 1e 21 96 ba 04 2f 5b bc fd c0 8b 3c
       -0.07704326 -0.0011453961 -0.013377909 0.017059797
0000a0 08 76 6e bd f1 bb b5 3d f1 26 40 bd 38 0b b4 3d
       -0.058218032 0.088737376 -0.046912137 0.08791202
0000b0 71 f2 97 3b 8d a4 f7 3c 7b d6 d1 bd f1 31 1b bd
       0.0046370556 0.030229831 -0.10245987 -0.037889425
0000c0 be fc b5 bd be a5 00 3c ed 9f 8d bd 7c ce b6 bd
       -0.08886097 0.007852016 -0.06915269 -0.089261025
0000d0 81 e2 89 3d 10 c8 67 bc 97 e6 3a bd ce 26 d5 3c
       0.06732655 -0.01414682 -0.045630064 0.02601948
0000e0 c8 b9 e3 3d 2e 44 85 bd b7 d8 40 3d 21 10 12 bd
       0.11119419 -0.06507145 0.047081675 -0.035659913
0000f0 66 44 e1 3d ca f7 9b bd e4 8e a7 bd b1 e8 58 3d
       0.10999374 -0.076156214 -0.08181551 0.052956287
000100 72 f0 6c 3d d5 31 1f bc 48 a4 fe bc 78 e3 39 3d
       0.057846494 -0.009716471 -0.031084195 0.045382947
000110 5d cb 5c 3c d2 28 0f 3d 26 04 03 3d 40 34 a9 3d
       0.01347622 0.03495104 0.031986378 0.08261919
000120 b1 11 a8 3d c5 af 3f 3d 12 ae 9d bd c0 69 5a bd
       0.08206499 0.046798486 -0.07699217 -0.053323507
000130 86 23 ba bc 31 dc aa 3d d5 50 5b bd 8c f5 94 bd
       -0.022722017 0.083427794 -0.053543884 -0.07273397
000140 7a 60 48 bd f8 c3 9a 3d 9d 5d a5 3d 27 fc ac bd
       -0.048920132 0.07556909 0.08074496 -0.08446532
000150 94 fa 81 bd 60 81 c6 bd 4a 0e 87 bd 09 a8 89 bd
       -0.06346622 -0.09692645 -0.06594522 -0.06721503
000160 28 62 c6 bd 40 47 64 bd 7d 4a a5 bd 69 a7 09 bd
       -0.096866906 -0.05573201 -0.08070848 -0.03360692
000170 e6 f9 d3 bd 0d 0d 30 bd 96 66 74 3d 50 64 b0 3a
       -0.10350399 -0.042981196 0.059668146 0.001345763
000180 c1 4e 54 3c 10 d7 bb bd 5b 64 13 3d fa 4a c0 3d
       0.0129582295 -0.09171879 0.03598438 0.09389301
000190 7f ee 7a 3d 5e 14 49 bd 4f a0 89 3b 83 74 62 3d
       0.061262604 -0.04909169 0.0042000185 0.055286895
0001a0 8c be c5 bd be 69 d4 bc 19 e5 32 3d 44 57 fe 3d
       -0.096554846 -0.025929328 0.043675516 0.12418988
0001b0 4f 05 b5 3d 6a fb 9d bd c0 a1 db 3c 57 67 bf 3c
       0.08838903 -0.07713969 0.026810527 0.023364706
0001c0 9d 39 13 bd 6b 46 54 3d a6 cb 53 3d 74 87 b9 bc
       -0.035943616 0.05182497 0.051707886 -0.022647597
0001d0 e9 39 58 bd 3f fe 0d bd a1 3c 93 bd 8d fb 77 bd
       -0.052789602 -0.034666296 -0.071892984 -0.060542632
0001e0 da db 6e bd 18 94 b8 3d f4 fe c3 3d 9c 6b a6 bd
       -0.058315136 0.09012622 0.09570113 -0.081259936
0001f0 4a e4 9f 3c 83 ba aa 3d 64 6a 69 bd 58 39 e7 bc
       0.019518036 0.083363555 -0.056986228 -0.028225586
000200 d7 2a a6 3d 4b 68 17 3d 01 20 a0 3d e3 dd 3a 3d
       0.0811364 0.036964696 0.07818604 0.045621764
000210 b3 a6 24 3d c2 e1 b5 bd e8 91 c7 3d c0 5c c7 bd
       0.04019804 -0.088809505 0.09744626 -0.097344875
000220 80 81 b6 3d 0c 86 79 bc d7 18 c1 3d f3 03 43 3c
       0.08911419 -0.015229713 0.09428566 0.011902797
000230 a8 fd 86 bd f0 0a a5 3d 6a 56 cd 3c 0b 98 f3 3d
       -0.0659135 0.08058727 0.02506562 0.11894234
000240 d8 a5 d1 3c b5 b9 86 bd af 83 c4 3d 9e 93 0b 3d
       0.025591776 -0.065783896 0.09595429 0.034076326
000250 3f fb e0 3a 63 59 4b 3d 68 f6 55 bd c0 f7 b8 3c
       0.0017164721 0.049645793 -0.052236944 0.022579074
000260 fb 2b 45 3d d5 08 da 3b a2 24 52 bc 48 75 74 3d
       0.048137646 0.006653885 -0.012826117 0.05968216
000270 43 01 1d bc b0 48 65 bd be 1e d8 3c 7d 43 30 bb
       -0.00958282 -0.055977523 0.026381847 -0.0026895695
000280 7d 8c 85 3c de ef 01 3d ad f8 7f bd 39 c2 a6 3d
       0.016302342 0.031722896 -0.062493015 0.08142514
000290 18 91 4f 3d 5b 93 a3 bd bc 69 3e 3d a2 46 2c 3d
       0.05067548 -0.0798709 0.046487555 0.04205955
0002a0 e9 79 80 3d 3a a0 b6 bd 74 1c 9c 3d ec 1e 39 bd
       0.062732525 -0.089172795 0.076226145 -0.045195505
0002b0 9d 83 a7 bd da a0 8f bd dd 94 14 bd 68 26 cb 3c
       -0.081794 -0.07013102 -0.03627478 0.024798587
0002c0 6d 51 93 3d ba 9f 11 3d 55 9c 98 3d 7c 7a 6e 3d
       0.07193265 0.035552718 0.07451693 0.05822228
0002d0 3c 69 ad bd 54 4a 4b 3d 46 38 9d 3d 13 35 31 3c
       -0.084673375 0.04963143 0.07676749 0.010815877
0002e0 2d fc c5 3d c6 bf b7 3d 93 eb c6 bd 8c 91 de bc
       0.09667239 0.08972125 -0.09712901 -0.027169012
0002f0 9a 49 04 3c 6c 75 8b bd f6 43 8a bd e0 47 ff bc
       0.008074189 -0.06809506 -0.06751244 -0.031162202
000300 69 76 d1 bd ee d7 9f 3d ad 8e a7 3d 62 6c 44 3d
       -0.10227663 0.07804857 0.0818151 0.047954924
000310 4c 3f 80 3d b5 3d 61 bd 8a 7b 70 3d 50 35 e1 3c
       0.06262073 -0.05499049 0.058711566 0.027491242
000320 d1 60 a4 bd 59 81 4c bc 87 06 51 3d 42 34 0c bd
       -0.08026279 -0.012482011 0.051031616 -0.034229524
000330 6c 23 84 bd f7 ce dc 3d 88 7d b2 3d dc 07 d7 3c
       -0.06452069 0.10781663 0.087153494 0.026248865
000340 3e b5 c5 3d e2 4c b4 3d 4d ce 11 bc cf b4 00 3d
       0.0965371 0.08803727 -0.008899284 0.031422433
000350 a2 a5 9c 3c c4 17 0c bc 23 4e 91 3d 66 09 a9 3d
       0.019121949 -0.008550588 0.070949815 0.08253746
000360 a2 26 b7 bd 13 65 d8 3c 42 58 94 bd 5b e5 5f bc
       -0.089429155 0.026415383 -0.07243396 -0.013665522
000370 87 6a 0e 3d d1 d7 a4 bd f6 cf 8e 3d da 94 c9 3c
       0.03476956 -0.08048976 0.06973259 0.02460711
000380 4b 14 a3 bd 14 dc d3 3d 5f fc 66 3d df b7 1c bb
       -0.07962855 0.10344711 0.056393024 -0.0023913307
000390 ae fd b3 3c c4 f3 5f bd c4 2b e2 3d db 5f af bd
       0.02197155 -0.054675832 0.11043504 -0.08563205
0003a0 c3 17 7e ba b4 28 98 bd 9c a7 bb bd 60 07 cf bc
       -0.0009692872 -0.074296385 -0.09162828 -0.025272071
0003b0 70 87 d8 3d e5 e9 8a bc b5 9c 2c 3d 9d 63 89 bd
       0.10572708 -0.016957233 0.042141635 -0.06708453
0003c0 1f 2a af 3d 01 48 a9 3c 87 a0 c7 3d 2f a6 8e 3d
       0.08552956 0.020664217 0.09747415 0.06965291
0003d0 9b 85 bc bc ea 61 06 3d a3 82 c0 3b db 65 b3 bd
       -0.023012927 0.032808222 0.005874948 -0.08759662
0003e0 a1 bd 1a bb b3 ca d1 3d df ad 98 3d d7 0f 99 bd
       -0.0023611563 0.1024374 0.07455038 -0.07473724
0003f0 dd f1 3b 3d 0a 51 a8 bd 1d 11 ba 3d 8f 78 09 3d
       0.045884956 -0.08218582 0.09085295 0.03356224

functional_1/conv2d_2/Conv2D;StatefulPartitionedCall/functional_1/conv2d_2/Conv2D f4 [64, 3, 3, 32]
000000 e6 cf ae bd 8b e5 8b bd 7c 4e 87 bc d9 ed 9e 3d
       -0.08535747 -0.06830891 -0.016516916 0.077602096
000010 45 14 08 3d bb 0c 9a 3d 1d 32 84 3d 75 19 89 3d
       0.033222456 0.075219594 0.06454871 0.06694309
000020 ea 61 7b bd da 8d 59 3d af da a8 bd da b0 3f bc
       -0.061372675 0.053113796 -0.082448356 -0.01169988
000030 f9 c2 9f bb 62 37 35 bc 16 14 af bd 57 20 d9 3c
       -0.0048755375 -0.011060568 -0.08548753 0.026504679
000040 d3 ff ab bd 6b 1e 0d bd 76 56 5f 3d 77 84 43 3d
       -0.08398404 -0.034452837 0.054525815 0.04773375
000050 81 2d da bc 97 6a 93 bc b0 7d 4d 3d 34 1e 68 bd
       -0.026633026 -0.017995162 0.050168693 -0.05666943
000060 78 46 7a 3b 81 8a 4a bd a1 f2 df 3c f4 36 6b 3c
       0.0038188975 -0.049448494 0.027337374 0.014356364
000070 31 33 96 bd 6f d8 46 bd f5 d8 c1 bd 97 f3 13 3d
       -0.07333983 -0.04854625 -0.094652094 0.036120977
000080 a9 20 67 bd c3 2a 82 bc dd c2 8a 3d 44 c0 88 bd
       -0.05642763 -0.015889531 0.067754485 -0.06677297
000090 da 05 e6 3c 6e c7 24 3d 56 f3 14 bd 55 5b be bc
       0.028078962 0.040229253 -0.036364876 -0.02323691
0000a0 cd d2 dc 3c b9 1f 4f bd c0 d8 b1 bd 32 94 07 3d
       0.026955986 -0.050567362 -0.0868392 0.033100314
0000b0 a2 1c 28 3c e3 e8 8c bb 05 f3 95 bd a7 76 7e bc
       0.010260733 -0.004300223 -0.07321743 -0.015531219
0000c0 59 d1 28 3b d5 e2 32 3c 27 60 e4 bc b3 0f 84 bd
       0.0025759547 0.010918339 -0.02787788 -0.06448307
0000d0 d6 fc 28 3c f7 b0 36 bd 16 cc b0 3d e1 f1 88 bd
       0.010314187 -0.04460236 0.08632676 -0.0668676
0000e0 39 37 87 3d c1 21 c2 3c ab c5 28 bd b4 20 43 bd
       0.0660233 0.023697736 -0.041204136 -0.04763861
0000f0 be ce 22 3d 18 27 f0 bc 44 de 39 3d 83 ba 81 3d
       0.039747946 -0.029315516 0.045377985 0.063344024
000100 59 ac 43 3c f9 fa 61 bd 70 ac 96 bd 87 14 25 bd
       0.011942946 -0.055170987 -0.073571086 -0.04030278
000110 73 73 db bb 8c 9e 36 3d 22 63 14 3d 1f 5c de 3c
       -0.006697112 0.044584796 0.036227353 0.027143536
000120 03 d4 3a 3c 09 23 64 3d 6c 70 9f bc a7 f2 ae ba
       0.011403087 0.055697475 -0.019462787 -0.0013347463
000130 c4 a2 85 bd 77 3f 31 bd c2 69 ec bb 01 1f 80 3c
       -0.06525186 -0.043273415 -0.0072147558 0.015639784
000140 65 a4 34 bd 5d a7 8c bd af 02 64 bd 67 d2 07 3d
       -0.04410209 -0.068678595 -0.05566662 0.03315964
000150 bd 45 0c 3d 0a 3d 97 bd d5 79 4b bd 5b ab 7d bd
       0.034246195 -0.07384689 -0.049676735 -0.061930995
000160 77 8d 38 3d fb a9 19 3b f9 67 87 3d 4d f3 c0 3d
       0.045056786 0.0023447264 0.06611628 0.09421406
000170 c2 3a 25 bc c0 5c 8a 3d 6e 13 87 3d cc 2f 27 3c
       -0.01008481 0.06755972 0.06595503 0.010204267
000180 88 be 94 bd 2d 36 97 3d 2d aa 46 bd 31 93 59 bd
       -0.072629035 0.0738338 -0.048502136 -0.05311889
000190 32 0d 1f 3d a9 e1 8a bd ad d3 c4 3c dd dd c1 3b
       0.038830943 -0.067813225 0.024026716 0.0059163407
0001a0 58 e7 be bd 45 32 ae bd ae 6c 82 bd 01 7c ed bb
       -0.09321469 -0.08505682 -0.06368385 -0.0072474484
0001b0 d9 d4 51 3c 78 9d b2 3c 46 c3 89 3d 94 69 2b bd
       0.0128070945 0.021803603 0.067266986 -0.041848734
0001c0 f9 ad 6c 3d 47 46 9d bd e2 ac 5f bd 8f 85 3c 3d
       0.0577831 -0.0767942 -0.054608233 0.04602581
0001d0 77 ac 84 39 66 fe 23 3d 29 ff 80 bc 3a 60 1e ba
       0.00025305498 0.040037535 -0.01574667 -0.00060415606
0001e0 5e d0 2c 3d f1 1b 98 bd c3 f5 bc ba 2c bf 5e bc
       0.042190902 -0.074272044 -0.0014416504 -0.013595384
0001f0 fc c8 97 bc f5 c3 5c 3d 4a 2d 87 3b bd d8 98 bd
       -0.018528454 0.053897817 0.004125272 -0.074632145
000200 8c 05 9b 3d f0 d7 f9 b9 1f 76 97 3d ab a1 9a 3c
       0.07569417 -0.00047653867 0.07395577 0.018875917
000210 ae bd a5 bd 6b 53 06 3d d9 cf 22 bc 29 53 c0 3d
       -0.08092819 0.032794397 -0.00993725 0.093908615
000220 6b 7d c3 bc 6d 48 0e 3d 03 6f 9a 3d 9b db 52 bd
       -0.023863515 0.03473704 0.07540705 -0.051478963
000230 6d fd 52 bd 5d f1 10 bc 98 10 ba bc 38 75 7d bd
       -0.051511217 -0.008846608 -0.02271299 -0.061879367
000240 27 c4 43 3d 42 80 d3 3c 4e 6b 39 3d 7a ad f0 bc
       0.047794487 0.025817994 0.04526835 -0.029379595
000250 f4 a5 b2 3d 49 35 00 bd 24 91 7d bd b1 b8 8d 3d
       0.08723059 -0.031300817 -0.061905995 0.06919993
000260 5d 05 94 3d 2c 1c 59 bc 72 20 60 bd e0 96 a2 bd
       0.072275855 -0.013251346 -0.054718442 -0.07938933
000270 4a 1e 06 3d f4 72 05 bd 56 2d 0a 3d 63 f2 f2 3b
       0.03274373 -0.03258033 0.033734642 0.0074141487
000280 70 bc a6 bd 22 8a e1 3c 49 45 dd 3c ca 98 02 bd
       -0.0814141 0.027531687 0.027010577 -0.031883992
000290 99 a4 0f 3d 5e 39 e5 bb 31 da 89 bd 3f 5e ee 3c
       0.035069082 -0.006995364 -0.0673107 0.029097674
0002a0 74 03 06 bd bb 39 6b bd 20 9a 90 3d 06 2f 02 bd
       -0.032718137 -0.057428103 0.07060647 -0.031783126
0002b0 ad f6 1a bd 9f 71 78 bd 38 df 2d bd 3c 70 e0 3c
       -0.037832905 -0.060655233 -0.042449206 0.027397268
0002c0 84 54 fe bc 38 5b 95 bd c0 ec ae bb 0a 64 37 bd
       -0.03104616 -0.07292789 -0.0053382814 -0.04477314
0002d0 89 ad 93 bd fe c7 72 3d 0c ee 86 bd 39 06 a7 bd
       -0.072108336 0.05927276 -0.065883726 -0.08155484
0002e0 3d a4 7a 3d 71 aa 67 3d cf e4 0c bd b5 08 60 bc
       0.061191786 0.05655903 -0.034397896 -0.013673951
0002f0 f3 80 8e 3b 01 e4 83 3c de ff 86 3d be 23 42 bd
       0.004348868 0.016099932 0.065917715 -0.047397368
000300 41 ee a6 3b 42 cb 39 3d 6c 03 f1 bc 21 d5 a4 3d
       0.00509432 0.045359857 -0.029420577 0.080484636
000310 1c 2e e6 3b 28 51 cb 3c 87 a4 11 3d 20 c7 83 bd
       0.0070245396 0.024818972 0.035557296 -0.064344645
000320 0e 24 59 3d 1f 63 2b 3c 3a ec 15 3c 64 a6 70 bd
       0.0530129 0.010460644 0.009150559 -0.058752432
000330 fd 05 94 bd 20 5d f8 3b 16 14 a4 3d 0c 0a 6a 3d
       -0.07227705 0.0075794607 0.080116436 0.057138488
000340 ba 9f 53 bc 8a 90 3d 3c 96 c9 0c 3c f9 32 64 bd
       -0.0129165 0.011570105 0.008592984 -0.055712674
000350 45 bc 0c bd ac 80 c5 bc d6 f0 55 bd 0b 67 c4 bc
       -0.034359235 -0.024109207 -0.052231632 -0.023974916
000360 33 fe 3d bd 8a 97 9a 3c d3 de 81 3d b3 e2 6e 3d
       -0.046385 0.018871088 0.063413285 0.058321666
000370 2d 02 86 bd 99 54 bc bc af 87 86 bd a7 a7 8b bd
       -0.06543384 -0.022989558 -0.06568848 -0.068190865
000380 a6 8c 6a 3d 6f 93 0c bc 30 dc 6e 3d 5d 6c fd bc
       0.05726304 -0.008580073 0.058315456 -0.03093546
000390 7c 7e 20 bd b2 69 b7 3b eb 7b a4 bd 59 c0 b3 bc
       -0.039183125 0.0055973167 -0.08031448 -0.021942304
0003a0 5c 9d f0 bc b1 db 5a bd 02 47 77 bd 46 b9 39 3d
       -0.02937191 -0.05343217 -0.060370453 0.045342706
0003b0 93 d5 83 bd 41 16 86 3c 65 f8 6c 3b b8 a2 b6 3d
       -0.064372204 0.016368033 0.0036158797 0.08917755
0003c0 fb 5b 58 3c f7 fb 57 bd 05 7c 01 3d db 0c d9 bc
       0.013205524 -0.052730527 0.031612415 -0.026495388
0003d0 d6 a5 15 bd 11 7a 68 3c a4 64 e5 3c 6d c8 73 3d
       -0.036535107 0.014189259 0.02800209 0.059517313
0003e0 43 eb 3f bd 88 54 8c 3d 16 19 b4 3c fa bf 58 3d
       -0.046855222 0.068520606 0.021984618 0.052917458
0003f0 9b 47 46 3c 19 b0 ae 3d 11 67 7f bd 20 4c d3 3b
       0.012102033 0.08529682 -0.06235415 0.006448284
